…
e allowed to be loaded via this mode unless they are explicitly allowlisted by the user via `torch.serialization.add_safe_globals`. We recommend you start setting `weights_only=True` for any use case where you don't have full control of the loaded file. Please open an issue on GitHub for any issues related to this experimental feature.\n","  model.load_state_dict(torch.load(\"/content/drive/My Drive/ASISTLAB_ARTIFICAL/tubitak_2209/CNN_BASED_YUZBILGI_EDINIM/parkinson_fine_tuned_resnet50.pth\", map_location=device))\n"]},{"output_type":"execute_result","data":{"text/plain":["ResNet(\n","  (conv1): Conv2d(3, 64, kernel_size=(7, 7), stride=(2, 2), padding=(3, 3), bias=False)\n","  (bn1): BatchNorm2d(64, eps=1e-05, momentum=0.1, affine=True, track_running_stats=True)\n","  (relu): ReLU(inplace=True)\n","  (maxpool): MaxPool2d(kernel_size=3, stride=2, padding=1, dilation=1, ceil_mode=False)\n","  (layer1): Sequential(\n","    (0): Bottleneck(\n","      (conv1): Conv2d(64, 64, kernel_size=(1, 1), stride=(1, 1), bias=False)\n","      (bn1): BatchNorm2d(64, eps=1e-05, momentum=0.1, affine=True, track_running_stats=True)\n","      (conv2): Conv2d(64, 64, kernel_size=(3, 3), stride=(1, 1), padding=(1, 1), bias=False)\n","      (bn2): BatchNorm2d(64, eps=1e-05, momentum=0.1, affine=True, track_running_stats=True)\n","      (conv3): Conv2d(64, 256, kernel_size=(1, 1), stride=(1, 1), bias=False)\n","      (bn3): BatchNorm2d(256, eps=1e-05, momentum=0.1, affine=True, track_running_stats=True)\n","      (relu): ReLU(inplace=True)\n","      (downsample): Sequential(\n","        (0): Conv2d(64, 256, kernel_size=(1, 1), stride=(1, 1), bias=False)\n","        (1): BatchNorm2d(256, eps=1e-05, momentum=0.1, affine=True, track_running_stats=True)\n","      )\n","    )\n","    (1): Bottleneck(\n","      (conv1): Conv2d(256, 64, kernel_size=(1, 1), stride=(1, 1), bias=False)\n","      (bn1): BatchNorm2d(64, eps=1e-05, momentum=0.1, affine=True, track_running_stats=True)\n","      (conv2): Conv2d(64, 64, kernel_size=(3, 3), stride=(1, 1), padding=(1, 1), bias=False)\n","      (bn2): BatchNorm2d(64, eps=1e-05, momentum=0.1, affine=True, track_running_stats=True)\n","      (conv3): Conv2d(64, 256, kernel_size=(1, 1), stride=(1, 1), bias=False)\n","      (bn3): BatchNorm2d(256, eps=1e-05, momentum=0.1, affine=True, track_running_stats=True)\n","      (relu): ReLU(inplace=True)\n","    )\n","    (2): Bottleneck(\n","      (conv1): Conv2d(256, 64, kernel_size=(1, 1), stride=(1, 1), bias=False)\n","      (bn1): BatchNorm2d(64, eps=1e-05, momentum=0.1, affine=True, track_running_stats=True)\n","      (conv2): Conv2d(64, 64, kernel_size=(3, 3), stride=(1, 1), padding=(1, 1), bias=False)\n","      (bn2): BatchNorm2d(64, eps=1e-05, momentum=0.1, affine=True, track_running_stats=True)\n","      (conv3): Conv2d(64, 256, kernel_size=(1, 1), stride=(1, 1), bias=False)\n","      (bn3): BatchNorm2d(256, eps=1e-05, momentum=0.1, affine=True, track_running_stats=True)\n","      (relu): ReLU(inplace=True)\n","    )\n","  )\n","  (layer2): Sequential(\n","    (0): Bottleneck(\n","      (conv1): Conv2d(256, 128, kernel_size=(1, 1), stride=(1, 1), bias=False)\n","      (bn1): BatchNorm2d(128, eps=1e-05, momentum=0.1, affine=True, track_running_stats=True)\n","      (conv2): Conv2d(128, 128, kernel_size=(3, 3), stride=(2, 2), padding=(1, 1), bias=False)\n","      (bn2): BatchNorm2d(128, eps=1e-05, momentum=0.1, affine=True, track_running_stats=True)\n","      (conv3): Conv2d(128, 512, kernel_size=(1, 1), stride=(1, 1), bias=False)\n","      (bn3): BatchNorm2d(512, eps=1e-05, momentum=0.1, affine=True, track_running_stats=True)\n","      (relu): ReLU(inplace=True)\n","      (downsample): Sequential(\n","        (0): Conv2d(256, 512, kernel_size=(1, 1), stride=(2, 2), bias=False)\n","        (1): BatchNorm2d(512, eps=1e-05, momentum=0.1, affine=True, track_running_stats=True)\n","      )\n","    )\n","    (1): Bottleneck(\n","      (conv1): Conv2d(512, 128, kernel_size=(1, 1), stride=(1, 1), bias=False)\n","      (bn1): BatchNorm2d(128, eps=1e-05, momentum=0.1, affine=True, track_running_stats=True)\n","      (conv2): Conv2d(128, 128, kernel_size=(3, 3), stride=(1, 1), padding=(1, 1), bias=False)\n","      (bn2): BatchNorm2d(128, eps=1e-05, momentum=0.1, affine=True, track_running_stats=True)\n","      (conv3): Conv2d(128, 512, kernel_size=(1, 1), stride=(1, 1), bias=False)\n","      (bn3): BatchNorm2d(512, eps=1e-05, momentum=0.1, affine=True, track_running_stats=True)\n","      (relu): ReLU(inplace=True)\n","    )\n","    (2): Bottleneck(\n","      (conv1): Conv2d(512, 128, kernel_size=(1, 1), stride=(1, 1), bias=False)\n","      (bn1): BatchNorm2d(128, eps=1e-05, momentum=0.1, affine=True, track_running_stats=True)\n","      (conv2): Conv2d(128, 128, kernel_size=(3, 3), stride=(1, 1), padding=(1, 1), bias=False)\n","      (bn2): BatchNorm2d(128, eps=1e-05, momentum=0.1, affine=True, track_running_stats=True)\n","      (conv3): Conv2d(128, 512, kernel_size=(1, 1), stride=(1, 1), bias=False)\n","      (bn3): BatchNorm2d(512, eps=1e-05, momentum=0.1, affine=True, track_running_stats=True)\n","      (relu): ReLU(inplace=True)\n","    )\n","    (3): Bottleneck(\n","      (conv1): Conv2d(512, 128, kernel_size=(1, 1), stride=(1, 1), bias=False)\n","      (bn1): BatchNorm2d(128, eps=1e-05, momentum=0.1, affine=True, track_running_stats=True)\n","      (conv2): Conv2d(128, 128, kernel_size=(3, 3), stride=(1, 1), padding=(1, 1), bias=False)\n","      (bn2): BatchNorm2d(128, eps=1e-05, momentum=0.1, affine=True, track_running_stats=True)\n","      (conv3): Conv2d(128, 512, kernel_size=(1, 1), stride=(1, 1), bias=False)\n","      (bn3): BatchNorm2d(512, eps=1e-05, momentum=0.1, affine=True, track_running_stats=True)\n","      (relu): ReLU(inplace=True)\n","    )\n","  )\n","  (layer3): Sequential(\n","    (0): Bottleneck(\n","      (conv1): Conv2d(512, 256, kernel_size=(1, 1), stride=(1, 1), bias=False)\n","      (bn1): BatchNorm2d(256, eps=1e-05, momentum=0.1, affine=True, track_running_stats=True)\n","      (conv2): Conv2d(256, 256, kernel_size=(3, 3), stride=(2, 2), padding=(1, 1), bias=False)\n","      (bn2): BatchNorm2d(256, eps=1e-05, momentum=0.1, affine=True, track_running_stats=True)\n","      (conv3): Conv2d(256, 1024, kernel_size=(1, 1), stride=(1, 1), bias=False)\n","      (bn3): BatchNorm2d(1024, eps=1e-05, momentum=0.1, affine=True, track_running_stats=True)\n","      (relu): ReLU(inplace=True)\n","      (downsample): Sequential(\n","        (0): Conv2d(512, 1024, kernel_size=(1, 1), stride=(2, 2), bias=False)\n","        (1): BatchNorm2d(1024, eps=1e-05, momentum=0.1, affine=True, track_running_stats=True)\n","      )\n","    )\n","    (1): Bottleneck(\n","      (conv1): Conv2d(1024, 256, kernel_size=(1, 1), stride=(1, 1), bias=False)\n","      (bn1): BatchNorm2d(256, eps=1e-05, momentum=0.1, affine=True, track_running_stats=True)\n","      (conv2): Conv2d(256, 256, kernel_size=(3, 3), stride=(1, 1), padding=(1, 1), bias=False)\n","      (bn2): BatchNorm2d(256, eps=1e-05, momentum=0.1, affine=True, track_running_stats=True)\n","      (conv3): Conv2d(256, 1024, kernel_size=(1, 1), stride=(1, 1), bias=False)\n","      (bn3): BatchNorm2d(1024, eps=1e-05, momentum=0.1, affine=True, track_running_stats=True)\n","      (relu): ReLU(inplace=True)\n","    )\n","    (2): Bottleneck(\n","      (conv1): Conv2d(1024, 256, kernel_size=(1, 1), stride=(1, 1), bias=False)\n","      (bn1): BatchNorm2d(256, eps=1e-05, momentum=0.1, affine=True, track_running_stats=True)\n","      (conv2): Conv2d(256, 256, kernel_size=(3, 3), stride=(1, 1), padding=(1, 1), bias=False)\n","      (bn2): BatchNorm2d(256, eps=1e-05, momentum=0.1, affine=True, track_running_stats=True)\n","      (conv3): Conv2d(256, 1024, kernel_size=(1, 1), stride=(1, 1), bias=False)\n","      (bn3): BatchNorm2d(1024, eps=1e-05, momentum=0.1, affine=True, track_running_stats=True)\n","      (relu): ReLU(inplace=True)\n","    )\n","    (3): Bottleneck(\n","      (conv1): Conv2d(1024, 256, kernel_size=(1, 1), stride=(1, 1), bias=False)\n","      (bn1): BatchNorm2d(256, eps=1e-05, momentum=0.1, affine=True, track_running_stats=True)\n","      (conv2): Conv2d(256, 256, kernel_size=(3, 3), stride=(1, 1), padding=(1, 1), bias=False)\n","      (bn2): BatchNorm2d(256, eps=1e-05, momentum=0.1, affine=True, track_running_stats=True)\n","      (conv3): Conv2d(256, 1024, kernel_size=(1, 1), stride=(1, 1), bias=False)\n","      (bn3): BatchNorm2d(1024, eps=1e-05, momentum=0.1, affine=True, track_running_stats=True)\n","      (relu): ReLU(inplace=True)\n","    )\n","    (4): Bottleneck(\n","      (conv1): Conv2d(1024, 256, kernel_size=(1, 1), stride=(1, 1), bias=False)\n","      (bn1): BatchNorm2d(256, eps=1e-05, momentum=0.1, affine=True, track_running_stats=True)\n","      (conv2): Conv2d(256, 256, kernel_size=(3, 3), stride=(1, 1), padding=(1, 1), bias=False)\n","      (bn2): BatchNorm2d(256, eps=1e-05, momentum=0.1, affine=True, track_running_stats=True)\n","      (conv3): Conv2d(256, 1024, kernel_size=(1, 1), stride=(1, 1), bias=False)\n","      (bn3): BatchNorm2d(1024, eps=1e-05, momentum=0.1, affine=True, track_running_stats=True)\n","      (relu): ReLU(inplace=True)\n","    )\n","    (5): Bottleneck(\n","      (conv1): Conv2d(1024, 256, kernel_size=(1, 1), stride=(1, 1), bias=False)\n","      (bn1): BatchNorm2d(256, eps=1e-05, momentum=0.1, affine=True, track_running_stats=True)\n","      (conv2): Conv2d(256, 256, kernel_size=(3, 3), stride=(1, 1), padding=(1, 1), bias=False)\n","      (bn2): BatchNorm2d(256, eps=1e-05, momentum=0.1, affine=True, track_running_stats=True)\n","      (conv3): Conv2d(256, 1024, kernel_size=(1, 1), stride=(1, 1), bias=False)\n","      (bn3): BatchNorm2d(1024, eps=1e-05, momentum=0.1, affine=True, track_running_stats=True)\n","      (relu): ReLU(inplace=True)\n","    )\n","  )\n","  (layer4): Sequential(\n","    (0): Bottleneck(\n","      (conv1): Conv2d(1024, 512, kernel_size=(1, 1), stride=(1, 1), bias=False)\n","      (bn1): BatchNorm2d(512, eps=1e-05, momentum=0.1, affine=True, track_running_stats=True)\n","      (conv2): Conv2d(512, 512, kernel_size=(3, 3), stride=(2, 2), padding=(1, 1), bias=False)\n","      (bn2): BatchNorm2d(512, eps=1e-05, momentum=0.1, affine=True, track_running_stats=True)\n","      (conv3): Conv2d(512, 2048, kernel_size=(1, 1), stride=(1, 1), bias=False)\n","      (bn3): BatchNorm2d(2048, eps=1e-05, momentum=0.1, affine=True, track_running_stats=True)\n","      (relu): ReLU(inplace=True)\n","      (downsample): Sequential(\n","        (0): Conv2d(1024, 2048, kernel_size=(1, 1), stride=(2, 2), bias=False)\n","        (1): BatchNorm2d(2048, eps=1e-05, momentum=0.1, affine=True, track_running_stats=True)\n","      )\n","    )\n","    (1): Bottleneck(\n","      (conv1): Conv2d(2048, 512, kernel_size=(1, 1), stride=(1, 1), bias=False)\n","      (bn1): BatchNorm2d(512, eps=1e-05, momentum=0.1, affine=True, track_running_stats=True)\n","      (conv2): Conv2d(512, 512, kernel_size=(3, 3), stride=(1, 1), padding=(1, 1), bias=False)\n","      (bn2): BatchNorm2d(512, eps=1e-05, momentum=0.1, affine=True, track_running_stats=True)\n","      (conv3): Conv2d(512, 2048, kernel_size=(1, 1), stride=(1, 1), bias=False)\n","      (bn3): BatchNorm2d(2048, eps=1e-05, momentum=0.1, affine=True, track_running_stats=True)\n","      (relu): ReLU(inplace=True)\n","    )\n","    (2): Bottleneck(\n","      (conv1): Conv2d(2048, 512, kernel_size=(1, 1), stride=(1, 1), bias=False)\n","      (bn1): BatchNorm2d(512, eps=1e-05, momentum=0.1, affine=True, track_running_stats=True)\n","      (conv2): Conv2d(512, 512, kernel_size=(3, 3), stride=(1, 1), padding=(1, 1), bias=False)\n","      (bn2): BatchNorm2d(512, eps=1e-05, momentum=0.1, affine=True, track_running_stats=True)\n","      (conv3): Conv2d(512, 2048, kernel_size=(1, 1), stride=(1, 1), bias=False)\n","      (bn3): BatchNorm2d(2048, eps=1e-05, momentum=0.1, affine=True, track_running_stats=True)\n","      (relu): ReLU(inplace=True)\n","    )\n","  )\n","  (avgpool): AdaptiveAvgPool2d(output_size=(1, 1))\n","  (fc): Linear(in_features=2048, out_features=2, bias=True)\n",")"]},"metadata":{},"execution_count":3}]},{"cell_type":"code","source":["\n","# Görüntü ön işleme\n","preprocess = transforms.Compose([\n","    transforms.Resize(256),\n","    transforms.CenterCrop(224),\n","    transforms.ToTensor(),\n","    transforms.Normalize(mean=[0.485, 0.456, 0.406], std=[0.229, 0.224, 0.225])\n","])"],"metadata":{"id":"nL1kN
…
